_example/fizzbuzz/fizzbuzz_model.tflite (tflite, 4776 bytes, 4 tensors)

sequential/dense_1/BiasAdd/ReadVariableOp/resource f4 [4]
000000 95 95 04 3e c0 43 22 3e b2 19 a8 3c e1 bf 0d bf
       0.12947686 0.15846157 0.020520065 -0.5537091

sequential/dense/BiasAdd/ReadVariableOp/resource f4 [64]
000000 d6 e3 02 be 3a f6 1b 3f 90 e5 f5 be 42 c5 1e 3e
       -0.12782225 0.60922587 -0.48026705 0.15504935
000010 04 f0 3b 3e 9d d5 49 be b2 16 46 be da 2b 3a 3e
       0.18353277 -0.19710393 -0.19344595 0.1818079
000020 81 10 77 bf 4b 93 d0 3e 6e a2 b4 3e da 8c e2 be
       -0.9650956 0.40737376 0.35280174 -0.44248086
000030 7f 5c 7b 3e ef 58 fa 3d d4 a5 ac 3e 5c 55 a7 be
       0.24547003 0.12223994 0.33720267 -0.32682312
000040 06 ae 77 be 25 6a 14 3f 69 0c 0c 3e a3 32 6e be
       -0.24187478 0.57974464 0.13676609 -0.23261504
000050 21 57 5f be 68 ea 21 bf 16 2b be be ef 46 2c 3f
       -0.21810581 -0.632483 -0.37142247 0.67295736
000060 4f a6 0e bf be 9b 0e 3e 76 92 18 bf fc 0b 14 3f
       -0.55722517 0.13926598 -0.5959848 0.57830787
000070 fb dd 18 bf 48 87 1a bf 21 68 16 3f 9d 71 76 be
       -0.59713715 -0.6036267 0.5875264 -0.24066778
000080 ca 52 f4 3e 32 f9 09 be 29 9b 97 be cb 69 e2 be
       0.47719413 -0.13473967 -0.29610565 -0.4422134
000090 a1 fe 87 3f 85 8f 24 bf 3a a8 c0 3e 30 2a 83 3e
       1.0624582 -0.64281493 0.37628347 0.25618124
0000a0 6f 2e 63 be b4 87 6b be 31 9a 14 3e 0b 6a 06 3e
       -0.22185682 -0.23000985 0.14511944 0.1312639
0000b0 59 3f 2b 3e 99 91 9f bf f0 90 de bd f2 69 06 be
       0.16723384 -1.2466308 -0.108674884 -0.13126352
0000c0 88 4d b6 3d 9a 04 4b be 38 b7 92 3e 8d 2a 50 3f
       0.08901507 -0.19825974 0.2865541 0.8131493
0000d0 e8 e3 31 3f 32 ef c6 3e 1b c3 f0 3c 71 ac 53 be
       0.6948838 0.38854367 0.029389909 -0.2067125
0000e0 b3 db d1 be ac 02 e9 3d df 1d 09 bf 8b e0 9b 3e
       -0.4098793 0.11377463 -0.53561205 0.3044475
0000f0 55 41 f4 be 84 ee 01 bd c0 30 3a bf 7c d7 f7 3e
       -0.47706094 -0.031721607 -0.72730637 0.4840659

sequential/dense/MatMul f4 [64, 7]
000000 c9 4d 75 bf 07 84 c2 bf e5 fa 30 3f 8e c4 c2 3f
       -0.95821816 -1.5196542 0.69132835 1.5216234
000010 19 12 80 bf 04 f3 c7 3f d9 4e 08 3f be f7 d8 3c
       -1.0005523 1.5621037 0.5324531 0.02648532
000020 bf b1 97 bf bf 4c 3b 3f 56 ec 4e bf f5 9d 91 be
       -1.1851119 0.7316398 -0.8082937 -0.28440824
000030 01 63 a3 bf e0 0c 43 3f 8f da 5c be c1 44 a7 bd
       -1.2764589 0.7619152 -0.21567748 -0.08167411
000040 6d 79 a5 3e 71 96 39 bf e1 ab 1f 3f 65 ef 85 3b
       0.32319203 -0.7249518 0.6237164 0.004087376
000050 9b 65 c2 3e e3 26 86 3f b8 72 c8 bf a3 d7 54 bf
       0.37968144 1.0480617 -1.5660009 -0.83141536
000060 ce aa 9f bf ae 6c 8f 3f 92 6b c5 3f 22 65 30 bf
       -1.2474 1.1205041 1.5423453 -0.68904316
000070 18 5c fe be 87 b4 21 3f 39 a9 2c bf ba 0f ad 3e
       -0.49679637 0.6316609 -0.67445713 0.3380106
000080 ba b9 12 bf ba 33 c0 3e 42 c1 a0 3c 6c 07 e7 bd
       -0.57314646 0.37539464 0.019623403 -0.112807125
000090 f4 23 25 be 47 5d d7 bd 74 f8 2e bf 77 53 4e bf
       -0.16126996 -0.10515838 -0.6834786 -0.8059611
0000a0 37 a7 86 3d df 68 18 bf 47 b8 13 bf 6f cc b3 3e
       0.065748625 -0.5953502 -0.5770306 0.35116908
0000b0 10 67 10 3f 2f e4 67 bd 7a aa 13 bf 04 ec 33 bf
       0.5640726 -0.056614097 -0.57682 -0.70282006
0000c0 de ee 52 3e 3e 44 f0 bc ff 5b 4b 3f 94 66 d7 3e
       0.20598933 -0.029329415 0.7943725 0.42070448
0000d0 5c ea a0 be b1 ca 08 3e b6 d8 dd bd 77 90 9d be
       -0.31428802 0.1335857 -0.1083235 -0.3077428
0000e0 e8 9c 51 bd d1 41 30 3f 9e 7d 76 bf 62 db d1 3d
       -0.051175028 0.6885043 -0.96285427 0.10246922
0000f0 08 07 6d bd 16 7f b6 bf 3f e9 f5 3e 49 71 24 3f
       -0.057868034 -1.4257534 0.48029515 0.6423536
000100 8b 65 1d bf 6f 7e 17 3f ef 73 0e 3f bb fc 8c bb
       -0.6148307 0.591773 0.5564565 -0.0043025888
000110 ef a6 2d 3f ea b8 ab be 13 45 c8 3f 4c fb 5b 3d
       0.67832845 -0.33539516 1.564608 0.053706452
000120 25 4d 66 3f 6b a1 d5 be af 87 97 bf 17 c4 40 3e
       0.89961463 -0.41724715 -1.1838282 0.18824802
000130 a9 63 5d 3f c2 e5 50 3f df 14 46 be 6b db bb 3e
       0.86480194 0.8160058 -0.19343899 0.3669084
000140 53 a9 7f 3e c5 6f 38 3f af d4 a5 be a8 f6 d3 3e
       0.24966936 0.72045547 -0.32388827 0.4139912
000150 42 db b0 3d 8e cd 18 3f 16 e5 94 be d3 b4 84 3d
       0.0863557 0.5968865 -0.2908103 0.06479802
000160 b9 44 d6 3d 69 53 0f 3f f9 71 59 be 7a db 81 be
       0.104623266 0.5598665 -0.21234883 -0.2536276
000170 43 7e ce be 0a 7f aa 3d 01 d4 ec 3e 18 5a c3 be
       -0.40330705 0.08325012 0.46255496 -0.38154674
000180 bf 7c 44 3e 9d 7b f0 bd ad a2 fa be dc 96 c8 be
       0.19188212 -0.11742327 -0.48952237 -0.39177597
000190 bb 2c d1 be be 0a b9 be 36 22 57 3f f9 0a 95 3d
       -0.4085444 -0.36141008 0.84036577 0.072774835
0001a0 cd 64 a8 3d 4c 4a 9d be d2 6d 6b be 0a f6 0d be
       0.08222351 -0.30720747 -0.22991112 -0.13863388
0001b0 f0 ee cc 3d 1d a0 96 3e 14 7c 37 be 02 0a c8 3d
       0.10006511 0.29419032 -0.17918426 0.09767534
0001c0 32 cb b5 bc bd 75 cf be 4a 68 0c 3e a9 92 2e bf
       -0.022191618 -0.40519515 0.13711658 -0.68192536
0001d0 42 b4 05 3d 07 c6 f8 3e 77 9a 28 be f0 d4 76 3e
       0.03264261 0.48588583 -0.16465174 0.24104667
0001e0 50 52 8b 3e a5 06 da 3e da 7e 7d bd 53 18 9b be
       0.27211237 0.42583194 -0.061888553 -0.30291995
0001f0 c0 c2 9d 3d 24 f9 e3 be dd 73 85 be 8a de ec 3d
       0.07703161 -0.44526017 -0.2606496 0.115658835
000200 14 5e e6 be 95 e8 74 3e ce cd 26 be 0c 38 59 3e
       -0.4499365 0.23916848 -0.16289446 0.21212786
000210 a7 c6 df bd 52 3d c9 3e b2 f6 4b 3f e7 53 f7 be
       -0.10926562 0.39304596 0.796733 -0.483062
000220 b2 ee a1 bf 00 59 ee 3d bf c0 10 3f e2 32 40 bf
       -1.2650969 0.11638069 0.5654411 -0.7507764
000230 f3 bd 88 3f 47 cf 32 bf cc 85 18 3f 0b 68 7e bf
       1.0682968 -0.6984753 0.5957916 -0.99377507
000240 2d 7c 9c 3f 07 4a 20 bf d4 6b 34 bf ce d9 f1 3e
       1.2225395 -0.62612957 -0.7047703 0.47236484
000250 ed e4 97 bd 47 cb 43 3f 5e 01 07 3e a6 98 b9 3e
       -0.07416711 0.7648205 0.13184115 0.36249274
000260 e4 0c c1 bd 43 d4 7c 3f 55 0d be 3f 6f 27 12 bf
       -0.09426287 0.98761386 1.4847819 -0.5709142
000270 3b 72 89 be 1f dd b0 bf c5 fb cb 3f e5 85 28 bf
       -0.26844963 -1.3817481 1.5936209 -0.65829307
000280 d5 6e 21 bf 20 ff 04 c0 e0 9e 7d 3f 0d 90 77 bf
       -0.6305974 -2.0780716 0.9907055 -0.9670418
000290 5a a9 03 bf 22 86 fc bf f6 ac 8c 3f 1f ae 0e bc
       -0.51430285 -1.9728434 1.0990283 -0.008708506
0002a0 90 43 84 be 80 c6 0f bf ed b4 98 3e 3e 0c 56 be
       -0.25832796 -0.5616226 0.29825535 -0.20903108
0002b0 6e 6f 8a be 24 83 e2 3e 9e 89 46 bf e6 7e 9d 3e
       -0.2703814 0.44240677 -0.7755374 0.30760878
0002c0 d5 4b 1f 3f d4 b2 71 be 11 9f 95 3f c2 e9 0d 3e
       0.62225085 -0.23603374 1.1689168 0.13858703
0002d0 d4 b6 88 bf c9 5e fd 3e 57 8b 01 3d 37 53 89 bd
       -1.0680795 0.49486378 0.031627025 -0.06705325
0002e0 27 e9 df 3f 9b e8 a5 3f d4 c7 80 3e d4 16 29 3f
       1.7493027 1.296161 0.25152457 0.6605046
0002f0 58 c3 ca bf 16 88 3c bf d9 ae be 3e c4 92 35 bf
       -1.5840864 -0.7364515 0.37242773 -0.7092707
000300 35 49 c4 bd 44 39 0f bf 82 88 08 3f f3 4b 5f bf
       -0.09584276 -0.55946755 0.53333294 -0.87225264
000310 d9 68 34 bf 62 ed f8 be 20 77 e7 bd 53 b0 2d 3e
       -0.70472485 -0.4861861 -0.11302018 0.16961794
000320 27 6a 13 3f 86 95 ae bd fb d9 80 3e f6 dc a9 be
       0.5758385 -0.08524613 0.25166306 -0.33176392
000330 f3 b3 e9 3e 93 a4 a7 bf af 77 62 be 02 c6 45 be
       0.45645103 -1.3097099 -0.22115968 -0.19313815
000340 9e e5 5c bf 98 b6 57 3f 86 7f 7d bf a2 6e 16 bf
       -0.8628787 0.8426299 -0.9902271 -0.5876256
000350 cf e8 0b 3f 4b ef cc 3e 12 07 cf 3f 9e 89 83 3f
       0.5465211 0.40026316 1.6174033 1.0276372
000360 6f 68 b6 3e 84 46 f3 3d 4f a5 9b 3e cd e2 3a 3f
       0.35626552 0.11878684 0.30399558 0.7300232
000370 51 07 6d bf 28 bc 37 3d 2d 2b 75 bd f7 d1 24 3f
       -0.9258929 0.044857174 -0.05985563 0.6438288
000380 4b 94 7a bf 2c 59 de bf a7 9b 80 3f fc f9 10 bf
       -0.9788253 -1.7370963 1.0047501 -0.56631446
000390 fb df 3f bf 45 30 b0 bf a2 fb 47 3f 7b 90 2e bf
       -0.7495114 -1.3764731 0.78118336 -0.6818921
0003a0 f0 9f 77 3e 6c 75 c8 3e 69 99 cd bb 00 61 b0 3e
       0.24182105 0.39152086 -0.0062743914 0.34449005
0003b0 d3 7b 64 3e 1b ce df 3e c4 03 f3 bf 9b 4c 29 3f
       0.2231286 0.43711933 -1.8985524 0.66132516
0003c0 cd bf d9 3f ce 89 89 bf 9d a7 28 40 90 a4 1e 3f
       1.7011658 -1.074518 2.6352303 0.6196985
0003d0 61 d2 da 3f 07 b3 91 3e 9b dc a6 be a6 a5 06 3f
       1.7095453 0.284569 -0.32590184 0.5259651
0003e0 96 e8 02 be 7c 3c b4 3e e0 0d 91 be 35 c7 ea bd
       -0.12784037 0.35202396 -0.28330898 -0.11463777
0003f0 ed a5 8b bf 5f 81 94 be e4 a6 08 bf 47 9a a4 3e
       -1.0910012 -0.29004952 -0.53379655 0.32148954

sequential/dense_1/MatMul f4 [4, 64]
000000 52 7e 6e 3f 8d eb c3 bc d2 63 e7 be f9 da 91 bf
       0.931615 -0.02391603 -0.45193344 -1.139495
000010 9e a1 1e 3f b0 82 be 3e 45 d4 10 3f 3e 4d a4 be
       0.6196536 0.37209082 0.565739 -0.3209018
000020 1d 62 c4 be ac bb b5 be 0a 79 29 3f 16 0c 12 bd
       -0.38356104 -0.35494745 0.66200316 -0.035656057
000030 dd 9d 15 3e 7e 03 f4 3e 93 d2 21 3f 19 87 a0 be
       0.14611001 0.47658914 0.63211936 -0.3135307
000040 20 48 59 be c5 73 59 3e 64 a5 ae 3e ac 40 6f 3f
       -0.2121892 0.21235569 0.34110558 0.93458056
000050 02 db bd bf 8b 20 6e be d5 42 ce bf 01 2c 8b bd
       -1.4832461 -0.23254602 -1.6114146 -0.067955025
000060 43 e7 29 3e 34 5a 2f 3e e0 2f 82 bf 70 01 07 3f
       0.16592126 0.17124254 -1.017086 0.5273657
000070 09 d6 62 be 55 51 02 be 1d c2 16 3e af 54 0e bf
       -0.2215196 -0.12726338 0.14722486 -0.55597967
000080 9c 97 a9 be 9f b1 3e bf 45 3d 6a 3f 15 9a 0e bf
       -0.3312348 -0.7448978 0.9149974 -0.5570386
000090 fe d9 30 3d 36 7f 94 be a9 21 35 3f 0f a3 f6 3e
       0.043176644 -0.29003304 0.70754486 0.4817128
0000a0 5a 26 23 3e 87 1b a3 be 34 86 33 bf 2e b6 08 be
       0.15932599 -0.3185694 -0.7012665 -0.13350746
0000b0 62 d0 04 3f 61 79 c2 3f 60 68 ba 3f 29 9a 49 bf
       0.51880467 1.5193292 1.4563103 -0.78750855
0000c0 75 62 b3 3d 9c 08 b9 bf 5f 3f 1f 3f 5b e9 15 c0
       0.087590136 -1.4455752 0.6220607 -2.342368
0000d0 78 b8 c9 bf 6f 17 98 3e 89 46 f5 be 4e 57 f1 be
       -1.575942 0.29705378 -0.47905377 -0.4713692
0000e0 9a 25 53 be 46 ec ba 3e d2 0d 00 bf 5c 4a f7 3d
       -0.20619813 0.36508387 -0.5002109 0.1207473
0000f0 85 83 80 bf f0 b2 b4 3e 46 a2 d5 3e 9c ba fe bf
       -1.0040137 0.35292768 0.41725367 -1.9900699
000100 58 e0 7a 3f 77 8a 47 3f c0 70 ac bd 28 1a 8b be
       0.9799857 0.77945656 -0.08419943 -0.27168393
000110 b8 12 19 bf 43 de 0d bf e8 c0 a2 be ac b7 2a bd
       -0.5979419 -0.5541727 -0.317878 -0.04167907
000120 4c 00 11 bf 5c 65 23 3f 93 ac 1a 3f 23 87 66 3d
       -0.5664108 0.6382654 0.6041958 0.05628122
000130 14 48 c6 be 64 51 98 3c a4 66 cb be 8d c1 f5 3d
       -0.38726866 0.018593498 -0.39726746 0.119998075
000140 56 4f be be c2 d1 dc 3d f5 d0 96 be 68 c2 a0 be
       -0.37169904 0.10782196 -0.29456297 -0.3139832
000150 cc cf a2 3f 71 9f ed 3d b0 01 87 3f 8a 6a bd bb
       1.2719665 0.11602677 1.054739 -0.0057805227
000160 46 3b 0d be ec 99 57 3f 99 ad b0 3e ef f6 bd be
       -0.13792142 0.8421924 0.34507445 -0.37102458
000170 d5 a5 0e 3d d1 95 bd be 75 a7 09 3f 68 5c ec 3e
       0.03482612 -0.37028363 0.53771144 0.4616425
000180 3b a7 44 3f 2b f0 99 3e ec b3 30 3f 79 87 d5 3d
       0.76817673 0.30066046 0.6902454 0.1042623
000190 de a4 bb 3e 10 45 38 be 31 f3 25 bf a7 ca b2 be
       0.3664922 -0.17995095 -0.64824206 -0.34920236
0001a0 fc ba 14 bf e7 50 b9 3b 1b 2d 7d 3f d5 8d e7 bd
       -0.58097816 0.0056553963 0.9889695 -0.11306349
0001b0 ae b3 07 bf 5f 5f 13 c0 a5 03 ac bf cc 24 74 3e
       -0.53008544 -2.302696 -1.3438612 0.23842162
0001c0 08 10 05 3f f1 0e 42 3f 8f dd b5 be 06 5d e7 3f
       0.51977587 0.7580405 -0.35520598 1.8075264
0001d0 14 76 d5 bf a8 3b d8 bd 05 1a a7 3d 29 77 78 3e
       -1.667666 -0.105582535 0.0815926 0.24264206
0001e0 b4 4d 05 3e 36 9d e4 3e e6 38 05 3f bc 27 99 3e
       0.13017923 0.44651192 0.52039945 0.29913127
0001f0 71 35 3e 3f 85 5b 7d be 6f 25 cf bf c8 d0 02 40
       0.74300295 -0.24741943 -1.6183299 2.043993
000200 11 e9 0e c0 df b3 77 be b2 1d 24 3f 86 7c 15 40
       -2.2329752 -0.24189709 0.6410781 2.3357253
000210 0e 5b 9c 3e 1a 18 8f bd 04 b7 58 bf 46 48 0d 3f
       0.3053822 -0.06987019 -0.8465426 0.55188406
000220 0b 5b b3 be 75 12 1a 3e a3 a7 31 be a1 be 00 bf
       -0.35030398 0.15046103 -0.17349105 -0.50290877
000230 6d 0e a3 3e a7 56 42 bf 6d 73 2a bc e9 cb ad ba
       0.31846943 -0.7591347 -0.010403496 -0.0013259623
000240 e4 f9 c4 3e 43 0f de 3e 95 f9 1c 3e 37 d3 68 bf
       0.384719 0.4337102 0.15329583 -0.9094729
000250 24 4a 11 3f 41 db 12 bf bb c8 d7 3f ec 9f bf 3f
       0.56753755 -0.57365805 1.6858133 1.4970679
000260 f3 c8 80 bc 55 d4 ba be 93 4f 98 3f 38 26 2c 3f
       -0.01572082 -0.3649012 1.1899284 0.6724582
000270 39 88 f7 be 33 9f 3a be ed d5 92 3e c7 27 02 3f
       -0.48346117 -0.18224792 0.28678837 0.50841945
000280 01 4d 4d 3f 8a 4d ea 3e 37 51 55 bf 2f c3 86 be
       0.80195624 0.45762283 -0.8332705 -0.26320788
000290 4f 3d e4 3e 6a 88 26 be a3 95 af be 0a d5 91 3e
       0.44578025 -0.16262975 -0.3429385 0.28482848
0002a0 1b 35 c4 be 42 39 4b 3e 03 97 21 3f fe d7 b2 3e
       -0.38321766 0.19846061 0.6312105 0.34930414
0002b0 55 ba 99 bf 4e fe d2 3f f3 b4 92 bf a0 09 68 3f
       -1.2009989 1.6483858 -1.1461471 0.90639687
0002c0 24 35 33 bf a3 9f 8d 3f 23 5a b4 bf 9b f3 27 bf
       -0.7000296 1.1064342 -1.4090008 -0.6560609
0002d0 f4 ec 50 40 f2 8a 8f 3e a0 3c a9 3e b4 24 19 3f
       3.2644625 0.28035694 0.33054066 0.5982163
0002e0 2f b0 8c be 79 f6 18 bf bf 20 e2 be 0d b1 c3 be
       -0.27478167 -0.5975109 -0.44165608 -0.38221017
0002f0 93 9c 91 3f 20 71 d5 be 8a e7 8b 3f 4c 73 a2 3f
       1.1375908 -0.4168787 1.0930035 1.2691436
000300 dd bd 0a bf 73 b3 95 bf d0 8b 2c 3f 7b 2c 82 be
       -0.5419596 -1.1695389 0.67400837 -0.2542456
000310 ff e3 90 be 87 fc 21 3f df 37 09 3e a4 0b 18 bf
       -0.28298947 0.6327595 0.1340022 -0.5939276
000320 8b 90 9d 3f 31 d2 90 bf 8a 97 6a bf aa 40 2c 3f
       1.2309736 -1.1314145 -0.9163748 0.6728617
000330 f0 13 4e bd 87 e4 ff be 94 6a 6b 3e af 2c 3f 3f
       -0.050311983 -0.4997904 0.22989875 0.74677557
000340 df 63 16 3f c8 75 82 bf db 4f 60 be ee 7f ce be
       0.5874614 -1.0192194 -0.21905462 -0.40331978
000350 2c 78 f7 be 62 9b 69 3f 12 9b af bf da 47 d6 bf
       -0.4833387 0.9125272 -1.3719199 -1.6740677
000360 eb 07 6b 3f 46 30 fa be 6a 02 93 bf 78 bc 5a bf
       0.91808957 -0.48864955 -1.1485112 -0.8544383
000370 a5 8d 8b 3f f5 c4 8c 3f b3 89 9c bf c9 e7 ea bd
       1.0902601 1.0997607 -1.2229522 -0.11469991
000380 97 04 bb bf 37 59 1f 3c 0d f8 5c bf ef f7 6b 3f
       -1.4610776 0.00972586 -0.86315995 0.9217519
000390 ab 4e 86 bf 65 d4 1f 3f 25 be 66 bd eb 0d 59 bf
       -1.0492758 0.62433463 -0.05633368 -0.8478686
0003a0 3f f7 ca 3f b9 9e e3 3e 2d 74 84 bf 13 ae 01 bf
       1.5856704 0.44457033 -1.0347954 -0.5065624
0003b0 62 5d f3 3f 28 4b c9 bf 71 d2 af 3f 54 7e 1f 3f
       1.9012873 -1.5726061 1.3736097 0.62302136
0003c0 4d b9 8c 3e 15 54 80 bf be cb 7b 3f e2 96 e8 3f
       0.27485123 -1.002566 0.9835776 1.8171046
0003d0 5c 9f d5 3f 6a 24 2a bf 92 6a 66 be 73 6b a4 3e
       1.6689258 -0.66461813 -0.22501591 0.32113227
0003e0 61 16 3e 3f c8 77 4d be 64 70 8c 3f 8d 61 aa be
       0.742529 -0.20065224 1.0971799 -0.3327755
0003f0 0b 25 37 bf 6f da 81 3f 2c be 85 3f cc 7a 97 bf
       -0.715409 1.0144786 1.0448661 -1.183435
